…
, 'timestamp': '2025-04-11 12:08:14'}\n","=============\n"]}]},{"cell_type":"code","source":["print(model)"],"metadata":{"colab":{"base_uri":"https://localhost:8080/"},"id":"BpC2T_JewTxP","executionInfo":{"status":"ok","timestamp":1744373294328,"user_tz":420,"elapsed":10,"user":{"displayName":"J H","userId":"12017482157397552319"}},"outputId":"5bd58648-59f2-43f6-e853-b24364731e67"},"execution_count":null,"outputs":[{"output_type":"stream","name":"stdout","text":["RobertaForSequenceClassification(\n","  (roberta): RobertaModel(\n","    (embeddings): RobertaEmbeddings(\n","      (word_embeddings): Embedding(50265, 768, padding_idx=1)\n","      (position_embeddings): Embedding(514, 768, padding_idx=1)\n","      (token_type_embeddings): Embedding(1, 768)\n","      (LayerNorm): LayerNorm((768,), eps=1e-05, elementwise_affine=True)\n","      (dropout): Dropout(p=0.1, inplace=False)\n","    )\n","    (encoder): RobertaEncoder(\n","      (layer): ModuleList(\n","        (0-11): 12 x RobertaLayer(\n","          (attention): RobertaAttention(\n","            (self): RobertaSdpaSelfAttention(\n","              (query): Linear(in_features=768, out_features=768, bias=True)\n","              (key): Linear(in_features=768, out_features=768, bias=True)\n","              (value): Linear(in_features=768, out_features=768, bias=True)\n","              (dropout): Dropout(p=0.1, inplace=False)\n","            )\n","            (output): RobertaSelfOutput(\n","              (dense): Linear(in_features=768, out_features=768, bias=True)\n","              (LayerNorm): LayerNorm((768,), eps=1e-05, elementwise_affine=True)\n","              (dropout): Dropout(p=0.1, inplace=False)\n","            )\n","          )\n","          (intermediate): RobertaIntermediate(\n","            (dense): Linear(in_features=768, out_features=3072, bias=True)\n","            (intermediate_act_fn): GELUActivation()\n","          )\n","          (output): RobertaOutput(\n","            (dense): Linear(in_features=3072, out_features=768, bias=True)\n","            (LayerNorm): LayerNorm((768,), eps=1e-05, elementwise_affine=True)\n","            (dropout): Dropout(p=0.1, inplace=False)\n","          )\n","        )\n","      )\n","    )\n","  )\n","  (classifier): RobertaClassificationHead(\n","    (dense): Linear(in_features=768, out_features=768, bias=True)\n","    (dropout): Dropout(p=0.1, inplace=False)\n","    (out_proj): Linear(in_features=768, out_features=2, bias=True)\n","  )\n",")\n"]}]},{"cell_type":"code","source":["for name, param in model.named_parameters():\n","    print(name, \"requires_grad=\", param.requires_grad)"],"metadata":{"colab":{"base_uri":"https://localhost:8080/"},"id":"gfR2S1YVwTtN","executionInfo":{"status":"ok","timestamp":1744373294344,"user_tz":420,"elapsed":16,"user":{"displayName":"J H","user
…
large-cased', 'timestamp': '2025-04-11 12:10:19'}\n","=============\n"]}]},{"cell_type":"code","source":["print(model)"],"metadata":{"colab":{"base_uri":"https://localhost:8080/"},"id":"TCAayVKDr0B6","executionInfo":{"status":"ok","timestamp":1744373419806,"user_tz":420,"elapsed":54,"user":{"displayName":"J H","userId":"12017482157397552319"}},"outputId":"742a21b7-8243-4bd8-cb93-8e2d2eb07f0f"},"execution_count":null,"outputs":[{"output_type":"stream","name":"stdout","text":["BertForSequenceClassification(\n","  (bert): BertModel(\n","    (embeddings): BertEmbeddings(\n","      (word_embeddings): Embedding(28996, 1024, padding_idx=0)\n","      (position_embeddings): Embedding(512, 1024)\n","      (token_type_embeddings): Embedding(2, 1024)\n","      (LayerNorm): LayerNorm((1024,), eps=1e-12, elementwise_affine=True)\n","      (dropout): Dropout(p=0.1, inplace=False)\n","    )\n","    (encoder): BertEncoder(\n","      (layer): ModuleList(\n","        (0-23): 24 x BertLayer(\n","          (attention): BertAttention(\n","            (self): BertSdpaSelfAttention(\n","              (query): Linear(in_features=1024, out_features=1024, bias=True)\n","              (key): Linear(in_features=1024, out_features=1024, bias=True)\n","              (value): Linear(in_features=1024, out_features=1024, bias=True)\n","              (dropout): Dropout(p=0.1, inplace=False)\n","            )\n","            (output): BertSelfOutput(\n","              (dense): Linear(in_features=1024, out_features=1024, bias=True)\n","              (LayerNorm): LayerNorm((1024,), eps=1e-12, elementwise_affine=True)\n","              (dropout): Dropout(p=0.1, inplace=False)\n","            )\n","          )\n","          (intermediate): BertIntermediate(\n","            (dense): Linear(in_features=1024, out_features=4096, bias=True)\n","            (intermediate_act_fn): GELUActivation()\n","          )\n","          (output): BertOutput(\n","            (dense): Linear(in_features=4096, out_features=1024, bias=True)\n","            (LayerNorm): LayerNorm((1024,), eps=1e-12, elementwise_affine=True)\n","            (dropout): Dropout(p=0.1, inplace=False)\n","          )\n","        )\n","      )\n","    )\n","    (pooler): BertPooler(\n","      (dense): Linear(in_features=1024, out_features=1024, bias=True)\n","      (activation): Tanh()\n","    )\n","  )\n","  (dropout): Dropout(p=0.1, inplace=False)\n","  (classifier): Linear(in_features=1024, out_features=2, bias=True)\n",")\n"]}]},{"cell_type":"code","source":["for name, param in model.named_parameters():\n","    print(name, \"requires_grad=\", param.requires_grad)"],"metadata":{"colab":{"base_uri":"https://localhost:8080/"},"id":"i6gwBMwVr8hp","executionInfo":{"status":"ok","timestamp":1744373419810,"user_tz":420,"elapsed":3,"user":{"displayName":"J H","userId":"120
…
', 'timestamp': '2025-04-11 12:12:07'}\n","=============\n"]}]},{"cell_type":"code","source":["print(model)"],"metadata":{"colab":{"base_uri":"https://localhost:8080/"},"id":"B3ulVq44t5-m","executionInfo":{"status":"ok","timestamp":1744373527552,"user_tz":420,"elapsed":4,"user":{"displayName":"J H","userId":"12017482157397552319"}},"outputId":"f37ff35f-86f7-41f2-8a0c-e6fa41796c4e"},"execution_count":null,"outputs":[{"output_type":"stream","name":"stdout","text":["RobertaForSequenceClassification(\n","  (roberta): RobertaModel(\n","    (embeddings): RobertaEmbeddings(\n","      (word_embeddings): Embedding(50265, 1024, padding_idx=1)\n","      (position_embeddings): Embedding(514, 1024, padding_idx=1)\n","      (token_type_embeddings): Embedding(1, 1024)\n","      (LayerNorm): LayerNorm((1024,), eps=1e-05, elementwise_affine=True)\n","      (dropout): Dropout(p=0.1, inplace=False)\n","    )\n","    (encoder): RobertaEncoder(\n","      (layer): ModuleList(\n","        (0-23): 24 x RobertaLayer(\n","          (attention): RobertaAttention(\n","            (self): RobertaSdpaSelfAttention(\n","              (query): Linear(in_features=1024, out_features=1024, bias=True)\n","              (key): Linear(in_features=1024, out_features=1024, bias=True)\n","              (value): Linear(in_features=1024, out_features=1024, bias=True)\n","              (dropout): Dropout(p=0.1, inplace=False)\n","            )\n","            (output): RobertaSelfOutput(\n","              (dense): Linear(in_features=1024, out_features=1024, bias=True)\n","              (LayerNorm): LayerNorm((1024,), eps=1e-05, elementwise_affine=True)\n","              (dropout): Dropout(p=0.1, inplace=False)\n","            )\n","          )\n","          (intermediate): RobertaIntermediate(\n","            (dense): Linear(in_features=1024, out_features=4096, bias=True)\n","            (intermediate_act_fn): GELUActivation()\n","          )\n","          (output): RobertaOutput(\n","            (dense): Linear(in_features=4096, out_features=1024, bias=True)\n","            (LayerNorm): LayerNorm((1024,), eps=1e-05, elementwise_affine=True)\n","            (dropout): Dropout(p=0.1, inplace=False)\n","          )\n","        )\n","      )\n","    )\n","  )\n","  (classifier): RobertaClassificationHead(\n","    (dense): Linear(in_features=1024, out_features=1024, bias=True)\n","    (dropout): Dropout(p=0.1, inplace=False)\n","    (out_proj): Linear(in_features=1024, out_features=2, bias=True)\n","  )\n",")\n"]}]},{"cell_type":"code","source":["for name, param in model.named_parameters():\n","    print(name, \"requires_grad=\", param.requires_grad)"],"metadata":{"colab":{"base_uri":"https://localhost:8080/"},"id":"0s_PUcnht58K","executionInfo":{"status":"ok","timestamp":1744373527555,"user_tz":420,"elapsed":2,"user":{"displayName":"J H","user
…
estamp': '2025-04-11 12:13:53'}\n","=============\n"]}]},{"cell_type":"code","source":["print(model)"],"metadata":{"colab":{"base_uri":"https://localhost:8080/"},"id":"lSft3ggc3tzh","executionInfo":{"status":"ok","timestamp":1744373633391,"user_tz":420,"elapsed":51,"user":{"displayName":"J H","userId":"12017482157397552319"}},"outputId":"4185579f-cd06-4115-b0c6-1f65e0501807"},"execution_count":null,"outputs":[{"output_type":"stream","name":"stdout","text":["ModernBertForSequenceClassification(\n","  (model): ModernBertModel(\n","    (embeddings): ModernBertEmbeddings(\n","      (tok_embeddings): Embedding(50368, 768, padding_idx=50283)\n","      (norm): LayerNorm((768,), eps=1e-05, elementwise_affine=True)\n","      (drop): Dropout(p=0.0, inplace=False)\n","    )\n","    (layers): ModuleList(\n","      (0): ModernBertEncoderLayer(\n","        (attn_norm): Identity()\n","        (attn): ModernBertAttention(\n","          (Wqkv): Linear(in_features=768, out_features=2304, bias=False)\n","          (rotary_emb): ModernBertRotaryEmbedding()\n","          (Wo): Linear(in_features=768, out_features=768, bias=False)\n","          (out_drop): Identity()\n","        )\n","        (mlp_norm): LayerNorm((768,), eps=1e-05, elementwise_affine=True)\n","        (mlp): ModernBertMLP(\n","          (Wi): Linear(in_features=768, out_features=2304, bias=False)\n","          (act): GELUActivation()\n","          (drop): Dropout(p=0.0, inplace=False)\n","          (Wo): Linear(in_features=1152, out_features=768, bias=False)\n","        )\n","      )\n","      (1-21): 21 x ModernBertEncoderLayer(\n","        (attn_norm): LayerNorm((768,), eps=1e-05, elementwise_affine=True)\n","        (attn): ModernBertAttention(\n","          (Wqkv): Linear(in_features=768, out_features=2304, bias=False)\n","          (rotary_emb): ModernBertRotaryEmbedding()\n","          (Wo): Linear(in_features=768, out_features=768, bias=False)\n","          (out_drop): Identity()\n","        )\n","        (mlp_norm): LayerNorm((768,), eps=1e-05, elementwise_affine=True)\n","        (mlp): ModernBertMLP(\n","          (Wi): Linear(in_features=768, out_features=2304, bias=False)\n","          (act): GELUActivation()\n","          (drop): Dropout(p=0.0, inplace=False)\n","          (Wo): Linear(in_features=1152, out_features=768, bias=False)\n","        )\n","      )\n","    )\n","    (final_norm): LayerNorm((768,), eps=1e-05, elementwise_affine=True)\n","  )\n","  (head): ModernBertPredictionHead(\n","    (dense): Linear(in_features=768, out_features=768, bias=False)\n","    (act): GELUActivation()\n","    (norm): LayerNorm((768,), eps=1e-05, elementwise_affine=True)\n","  )\n","  (drop): Dropout(p=0.0, inplace=False)\n","  (classifier): Linear(in_features=768, out_features=2, bias=True)\n",")\n"]}]},{"cell_type":"code","source":["for name, param in model.named_parameters():\n","    print(name, \"requires_grad=\", param.requires_grad)"],"metadata":{"colab":{"base_uri":"https://localhost:8080/"},"id":"Cz6A_tAN3ttD","executionInfo":{"status":"ok","timestamp":1744373633394,"user_tz":420,"elapsed":2,"user":{"displayName":"J H","userId":"1201
…
mestamp': '2025-04-11 12:15:14'}\n","=============\n"]}]},{"cell_type":"code","source":["print(model)"],"metadata":{"colab":{"base_uri":"https://localhost:8080/"},"id":"KGqfr7DQ5rJR","executionInfo":{"status":"ok","timestamp":1744373714269,"user_tz":420,"elapsed":9,"user":{"displayName":"J H","userId":"12017482157397552319"}},"outputId":"166d319c-31f6-4758-821a-7657fa78c0b4"},"execution_count":null,"outputs":[{"output_type":"stream","name":"stdout","text":["ModernBertForSequenceClassification(\n","  (model): ModernBertModel(\n","    (embeddings): ModernBertEmbeddings(\n","      (tok_embeddings): Embedding(50368, 1024, padding_idx=50283)\n","      (norm): LayerNorm((1024,), eps=1e-05, elementwise_affine=True)\n","      (drop): Dropout(p=0.0, inplace=False)\n","    )\n","    (layers): ModuleList(\n","      (0): ModernBertEncoderLayer(\n","        (attn_norm): Identity()\n","        (attn): ModernBertAttention(\n","          (Wqkv): Linear(in_features=1024, out_features=3072, bias=False)\n","          (rotary_emb): ModernBertRotaryEmbedding()\n","          (Wo): Linear(in_features=1024, out_features=1024, bias=False)\n","          (out_drop): Identity()\n","        )\n","        (mlp_norm): LayerNorm((1024,), eps=1e-05, elementwise_affine=True)\n","        (mlp): ModernBertMLP(\n","          (Wi): Linear(in_features=1024, out_features=5248, bias=False)\n","          (act): GELUActivation()\n","          (drop): Dropout(p=0.0, inplace=False)\n","          (Wo): Linear(in_features=2624, out_features=1024, bias=False)\n","        )\n","      )\n","      (1-27): 27 x ModernBertEncoderLayer(\n","        (attn_norm): LayerNorm((1024,), eps=1e-05, elementwise_affine=True)\n","        (attn): ModernBertAttention(\n","          (Wqkv): Linear(in_features=1024, out_features=3072, bias=False)\n","          (rotary_emb): ModernBertRotaryEmbedding()\n","          (Wo): Linear(in_features=1024, out_features=1024, bias=False)\n","          (out_drop): Identity()\n","        )\n","        (mlp_norm): LayerNorm((1024,), eps=1e-05, elementwise_affine=True)\n","        (mlp): ModernBertMLP(\n","          (Wi): Linear(in_features=1024, out_features=5248, bias=False)\n","          (act): GELUActivation()\n","          (drop): Dropout(p=0.0, inplace=False)\n","          (Wo): Linear(in_features=2624, out_features=1024, bias=False)\n","        )\n","      )\n","    )\n","    (final_norm): LayerNorm((1024,), eps=1e-05, elementwise_affine=True)\n","  )\n","  (head): ModernBertPredictionHead(\n","    (dense): Linear(in_features=1024, out_features=1024, bias=False)\n","    (act): GELUActivation()\n","    (norm): LayerNorm((1024,), eps=1e-05, elementwise_affine=True)\n","  )\n","  (drop): Dropout(p=0.0, inplace=False)\n","  (classifier): Linear(in_features=1024, out_features=2, bias=True)\n",")\n"]}]},{"cell_type":"code","source":["for name, param in model.named_parameters():\n","    print(name, \"requires_grad=\", param.requires_grad)"],"metadata":{"colab":{"base_uri":"https://localhost:8080/"},"id":"_wkVHarE5q9_","executionInfo":{"status":"ok","timestamp":1744373714331,"user_tz":420,"elapsed":58,"user":{"displayName":"J H","userId":"12
…
mestamp': '2025-04-11 12:17:22'}\n","=============\n"]}]},{"cell_type":"code","source":["print(model)"],"metadata":{"colab":{"base_uri":"https://localhost:8080/"},"id":"3-Kl7H9c8Ubk","executionInfo":{"status":"ok","timestamp":1744373842391,"user_tz":420,"elapsed":5,"user":{"displayName":"J H","userId":"12017482157397552319"}},"outputId":"2fe545ec-b3ea-4f2a-fb7a-bbd1117fc59f"},"execution_count":null,"outputs":[{"output_type":"stream","name":"stdout","text":["DebertaV2ForSequenceClassification(\n","  (deberta): DebertaV2Model(\n","    (embeddings): DebertaV2Embeddings(\n","      (word_embeddings): Embedding(128100, 768, padding_idx=0)\n","      (LayerNorm): LayerNorm((768,), eps=1e-07, elementwise_affine=True)\n","      (dropout): Dropout(p=0.1, inplace=False)\n","    )\n","    (encoder): DebertaV2Encoder(\n","      (layer): ModuleList(\n","        (0-11): 12 x DebertaV2Layer(\n","          (attention): DebertaV2Attention(\n","            (self): DisentangledSelfAttention(\n","              (query_proj): Linear(in_features=768, out_features=768, bias=True)\n","              (key_proj): Linear(in_features=768, out_features=768, bias=True)\n","              (value_proj): Linear(in_features=768, out_features=768, bias=True)\n","              (pos_dropout): Dropout(p=0.1, inplace=False)\n","              (dropout): Dropout(p=0.1, inplace=False)\n","            )\n","            (output): DebertaV2SelfOutput(\n","              (dense): Linear(in_features=768, out_features=768, bias=True)\n","              (LayerNorm): LayerNorm((768,), eps=1e-07, elementwise_affine=True)\n","              (dropout): Dropout(p=0.1, inplace=False)\n","            )\n","          )\n","          (intermediate): DebertaV2Intermediate(\n","            (dense): Linear(in_features=768, out_features=3072, bias=True)\n","            (intermediate_act_fn): GELUActivation()\n","          )\n","          (output): DebertaV2Output(\n","            (dense): Linear(in_features=3072, out_features=768, bias=True)\n","            (LayerNorm): LayerNorm((768,), eps=1e-07, elementwise_affine=True)\n","            (dropout): Dropout(p=0.1, inplace=False)\n","          )\n","        )\n","      )\n","      (rel_embeddings): Embedding(512, 768)\n","      (LayerNorm): LayerNorm((768,), eps=1e-07, elementwise_affine=True)\n","    )\n","  )\n","  (pooler): ContextPooler(\n","    (dense): Linear(in_features=768, out_features=768, bias=True)\n","    (dropout): Dropout(p=0, inplace=False)\n","  )\n","  (classifier): Linear(in_features=768, out_features=2, bias=True)\n","  (dropout): Dropout(p=0.1, inplace=False)\n",")\n"]}]},{"cell_type":"code","source":["for name, param in model.named_parameters():\n","    print(name, \"requires_grad=\", param.requires_grad)"],"metadata":{"colab":{"base_uri":"https://localhost:8080/"},"id":"lr9UAQZw8UZt","executionInfo":{"status":"ok","timestamp":1744373842402,"user_tz":420,"elapse
…
ingface_hub', 'path': 'xlnet/xlnet-base-cased', 'timestamp': '2025-04-11 12:22:26'}\n","=============\n"]}]},{"cell_type":"code","source":["print(model)"],"metadata":{"id":"DkGkZ9B58cBZ","executionInfo":{"status":"ok","timestamp":1744374146431,"user_tz":420,"elapsed":10,"user":{"displayName":"J H","userId":"12017482157397552319"}},"colab":{"base_uri":"https://localhost:8080/"},"outputId":"b9b69db6-ca34-4a9d-8408-91d72a51b861"},"execution_count":94,"outputs":[{"output_type":"stream","name":"stdout","text":["XLNetForSequenceClassification(\n","  (transformer): XLNetModel(\n","    (word_embedding): Embedding(32000, 768)\n","    (layer): ModuleList(\n","      (0-11): 12 x XLNetLayer(\n","        (rel_attn): XLNetRelativeAttention(\n","          (layer_norm): LayerNorm((768,), eps=1e-12, elementwise_affine=True)\n","          (dropout): Dropout(p=0.1, inplace=False)\n","        )\n","        (ff): XLNetFeedForward(\n","          (layer_norm): LayerNorm((768,), eps=1e-12, elementwise_affine=True)\n","          (layer_1): Linear(in_features=768, out_features=3072, bias=True)\n","          (layer_2): Linear(in_features=3072, out_features=768, bias=True)\n","          (dropout): Dropout(p=0.1, inplace=False)\n","          (activation_function): GELUActivation()\n","        )\n","        (dropout): Dropout(p=0.1, inplace=False)\n","      )\n","    )\n","    (dropout): Dropout(p=0.1, inplace=False)\n","  )\n","  (sequence_summary): SequenceSummary(\n","    (summary): Linear(in_features=768, out_features=768, bias=True)\n","    (activation): Tanh()\n","    (first_dropout): Identity()\n","    (last_dropout): Dropout(p=0.1, inplace=False)\n","  )\n","  (logits_proj): Linear(in_features=768, out_features=2, bias=True)\n",")\n"]}]},{"cell_type":"code","source":["for name, param in model.named_parameters():\n","    print(name, \"requires_grad=\", param.requires_grad)"],"metadata":{"id":"sx-grNX08b-e","executionInfo":{"status":"ok","timestamp":1744374146446,"user_tz":420,"elapsed":14,"user":{"displayName":"J H","userId":"12017482157397552319"}},"colab":{"base_uri":"https
…
gface_hub', 'path': 'xlnet/xlnet-large-cased', 'timestamp': '2025-04-11 12:23:34'}\n","=============\n"]}]},{"cell_type":"code","source":["print(model)"],"metadata":{"id":"FOHmuSwbD3iy","executionInfo":{"status":"ok","timestamp":1744374214221,"user_tz":420,"elapsed":13,"user":{"displayName":"J H","userId":"12017482157397552319"}},"colab":{"base_uri":"https://localhost:8080/"},"outputId":"97ee4e2a-cbb5-443f-c0bc-617042e53535"},"execution_count":102,"outputs":[{"output_type":"stream","name":"stdout","text":["XLNetForSequenceClassification(\n","  (transformer): XLNetModel(\n","    (word_embedding): Embedding(32000, 1024)\n","    (layer): ModuleList(\n","      (0-23): 24 x XLNetLayer(\n","        (rel_attn): XLNetRelativeAttention(\n","          (layer_norm): LayerNorm((1024,), eps=1e-12, elementwise_affine=True)\n","          (dropout): Dropout(p=0.1, inplace=False)\n","        )\n","        (ff): XLNetFeedForward(\n","          (layer_norm): LayerNorm((1024,), eps=1e-12, elementwise_affine=True)\n","          (layer_1): Linear(in_features=1024, out_features=4096, bias=True)\n","          (layer_2): Linear(in_features=4096, out_features=1024, bias=True)\n","          (dropout): Dropout(p=0.1, inplace=False)\n","          (activation_function): GELUActivation()\n","        )\n","        (dropout): Dropout(p=0.1, inplace=False)\n","      )\n","    )\n","    (dropout): Dropout(p=0.1, inplace=False)\n","  )\n","  (sequence_summary): SequenceSummary(\n","    (summary): Linear(in_features=1024, out_features=1024, bias=True)\n","    (activation): Tanh()\n","    (first_dropout): Identity()\n","    (last_dropout): Dropout(p=0.1, inplace=False)\n","  )\n","  (logits_proj): Linear(in_features=1024, out_features=2, bias=True)\n",")\n"]}]},{"cell_type":"code","source":["for name, param in model.named_parameters():\n","    print(name, \"requires_grad=\", param.requires_grad)"],"metadata":{"id":"7Lkse6T-D3gF","executionInfo":{"status":"ok","timestamp":1744374214253,"user_tz":420,"elapsed":31,"user":{"displayName":"J H","userId":"12017482157397552319"}},"colab":{"base_uri":"http
…
