…
e', 'timestamp': '2025-04-11 15:26:31'}\n","=============\n"]}]},{"cell_type":"code","source":["print(model)"],"metadata":{"colab":{"base_uri":"https://localhost:8080/"},"id":"BpC2T_JewTxP","executionInfo":{"status":"ok","timestamp":1744385192025,"user_tz":420,"elapsed":90,"user":{"displayName":"J H","userId":"12017482157397552319"}},"outputId":"cbdeaff2-6938-4d49-ad7a-df2a11dae56b"},"execution_count":29,"outputs":[{"output_type":"stream","name":"stdout","text":["RobertaForSequenceClassification(\n","  (roberta): RobertaModel(\n","    (embeddings): RobertaEmbeddings(\n","      (word_embeddings): Embedding(50265, 768, padding_idx=1)\n","      (position_embeddings): Embedding(514, 768, padding_idx=1)\n","      (token_type_embeddings): Embedding(1, 768)\n","      (LayerNorm): LayerNorm((768,), eps=1e-05, elementwise_affine=True)\n","      (dropout): Dropout(p=0.1, inplace=False)\n","    )\n","    (encoder): RobertaEncoder(\n","      (layer): ModuleList(\n","        (0-11): 12 x RobertaLayer(\n","          (attention): RobertaAttention(\n","            (self): RobertaSdpaSelfAttention(\n","              (query): Linear(in_features=768, out_features=768, bias=True)\n","              (key): Linear(in_features=768, out_features=768, bias=True)\n","              (value): Linear(in_features=768, out_features=768, bias=True)\n","              (dropout): Dropout(p=0.1, inplace=False)\n","            )\n","            (output): RobertaSelfOutput(\n","              (dense): Linear(in_features=768, out_features=768, bias=True)\n","              (LayerNorm): LayerNorm((768,), eps=1e-05, elementwise_affine=True)\n","              (dropout): Dropout(p=0.1, inplace=False)\n","            )\n","          )\n","          (intermediate): RobertaIntermediate(\n","            (dense): Linear(in_features=768, out_features=3072, bias=True)\n","            (intermediate_act_fn): GELUActivation()\n","          )\n","          (output): RobertaOutput(\n","            (dense): Linear(in_features=3072, out_features=768, bias=True)\n","            (LayerNorm): LayerNorm((768,), eps=1e-05, elementwise_affine=True)\n","            (dropout): Dropout(p=0.1, inplace=False)\n","          )\n","        )\n","      )\n","    )\n","  )\n","  (classifier): RobertaClassificationHead(\n","    (dense): Linear(in_features=768, out_features=768, bias=True)\n","    (dropout): Dropout(p=0.1, inplace=False)\n","    (out_proj): Linear(in_features=768, out_features=2, bias=True)\n","  )\n",")\n"]}]},{"cell_type":"code","source":["for name, param in model.named_parameters():\n","    print(name, \"requires_grad=\", param.requires_grad)"],"metadata":{"colab":{"base_uri":"https://localhost:8080/"},"id":"gfR2S1YVwTtN","executionInfo":{"status":"ok","timestamp":1744385192028,"user_tz":420,"elapsed":2,"user":{"displayName":"J H","userI
…
rt-large-cased', 'timestamp': '2025-04-11 15:28:38'}\n","=============\n"]}]},{"cell_type":"code","source":["print(model)"],"metadata":{"colab":{"base_uri":"https://localhost:8080/"},"id":"TCAayVKDr0B6","executionInfo":{"status":"ok","timestamp":1744385318416,"user_tz":420,"elapsed":5,"user":{"displayName":"J H","userId":"12017482157397552319"}},"outputId":"55c134dd-7f8c-4f7a-e16c-fa471c0078d9"},"execution_count":26,"outputs":[{"output_type":"stream","name":"stdout","text":["BertForSequenceClassification(\n","  (bert): BertModel(\n","    (embeddings): BertEmbeddings(\n","      (word_embeddings): Embedding(28996, 1024, padding_idx=0)\n","      (position_embeddings): Embedding(512, 1024)\n","      (token_type_embeddings): Embedding(2, 1024)\n","      (LayerNorm): LayerNorm((1024,), eps=1e-12, elementwise_affine=True)\n","      (dropout): Dropout(p=0.1, inplace=False)\n","    )\n","    (encoder): BertEncoder(\n","      (layer): ModuleList(\n","        (0-23): 24 x BertLayer(\n","          (attention): BertAttention(\n","            (self): BertSdpaSelfAttention(\n","              (query): Linear(in_features=1024, out_features=1024, bias=True)\n","              (key): Linear(in_features=1024, out_features=1024, bias=True)\n","              (value): Linear(in_features=1024, out_features=1024, bias=True)\n","              (dropout): Dropout(p=0.1, inplace=False)\n","            )\n","            (output): BertSelfOutput(\n","              (dense): Linear(in_features=1024, out_features=1024, bias=True)\n","              (LayerNorm): LayerNorm((1024,), eps=1e-12, elementwise_affine=True)\n","              (dropout): Dropout(p=0.1, inplace=False)\n","            )\n","          )\n","          (intermediate): BertIntermediate(\n","            (dense): Linear(in_features=1024, out_features=4096, bias=True)\n","            (intermediate_act_fn): GELUActivation()\n","          )\n","          (output): BertOutput(\n","            (dense): Linear(in_features=4096, out_features=1024, bias=True)\n","            (LayerNorm): LayerNorm((1024,), eps=1e-12, elementwise_affine=True)\n","            (dropout): Dropout(p=0.1, inplace=False)\n","          )\n","        )\n","      )\n","    )\n","    (pooler): BertPooler(\n","      (dense): Linear(in_features=1024, out_features=1024, bias=True)\n","      (activation): Tanh()\n","    )\n","  )\n","  (dropout): Dropout(p=0.1, inplace=False)\n","  (classifier): Linear(in_features=1024, out_features=2, bias=True)\n",")\n"]}]},{"cell_type":"code","source":["for name, param in model.named_parameters():\n","    print(name, \"requires_grad=\", param.requires_grad)"],"metadata":{"colab":{"base_uri":"https://localhost:8080/"},"id":"i6gwBMwVr8hp","executionInfo":{"status":"ok","timestamp":1744385318429,"user_tz":420,"elapsed":12,"user":{"displayName":"J H","userId":"12
…
e', 'timestamp': '2025-04-11 15:30:30'}\n","=============\n"]}]},{"cell_type":"code","source":["print(model)"],"metadata":{"colab":{"base_uri":"https://localhost:8080/"},"id":"B3ulVq44t5-m","executionInfo":{"status":"ok","timestamp":1744385430724,"user_tz":420,"elapsed":15,"user":{"displayName":"J H","userId":"12017482157397552319"}},"outputId":"64768813-ded2-451b-ad9a-e6b7bbf28eea"},"execution_count":35,"outputs":[{"output_type":"stream","name":"stdout","text":["RobertaForSequenceClassification(\n","  (roberta): RobertaModel(\n","    (embeddings): RobertaEmbeddings(\n","      (word_embeddings): Embedding(50265, 1024, padding_idx=1)\n","      (position_embeddings): Embedding(514, 1024, padding_idx=1)\n","      (token_type_embeddings): Embedding(1, 1024)\n","      (LayerNorm): LayerNorm((1024,), eps=1e-05, elementwise_affine=True)\n","      (dropout): Dropout(p=0.1, inplace=False)\n","    )\n","    (encoder): RobertaEncoder(\n","      (layer): ModuleList(\n","        (0-23): 24 x RobertaLayer(\n","          (attention): RobertaAttention(\n","            (self): RobertaSdpaSelfAttention(\n","              (query): Linear(in_features=1024, out_features=1024, bias=True)\n","              (key): Linear(in_features=1024, out_features=1024, bias=True)\n","              (value): Linear(in_features=1024, out_features=1024, bias=True)\n","              (dropout): Dropout(p=0.1, inplace=False)\n","            )\n","            (output): RobertaSelfOutput(\n","              (dense): Linear(in_features=1024, out_features=1024, bias=True)\n","              (LayerNorm): LayerNorm((1024,), eps=1e-05, elementwise_affine=True)\n","              (dropout): Dropout(p=0.1, inplace=False)\n","            )\n","          )\n","          (intermediate): RobertaIntermediate(\n","            (dense): Linear(in_features=1024, out_features=4096, bias=True)\n","            (intermediate_act_fn): GELUActivation()\n","          )\n","          (output): RobertaOutput(\n","            (dense): Linear(in_features=4096, out_features=1024, bias=True)\n","            (LayerNorm): LayerNorm((1024,), eps=1e-05, elementwise_affine=True)\n","            (dropout): Dropout(p=0.1, inplace=False)\n","          )\n","        )\n","      )\n","    )\n","  )\n","  (classifier): RobertaClassificationHead(\n","    (dense): Linear(in_features=1024, out_features=1024, bias=True)\n","    (dropout): Dropout(p=0.1, inplace=False)\n","    (out_proj): Linear(in_features=1024, out_features=2, bias=True)\n","  )\n",")\n"]}]},{"cell_type":"code","source":["for name, param in model.named_parameters():\n","    print(name, \"requires_grad=\", param.requires_grad)"],"metadata":{"colab":{"base_uri":"https://localhost:8080/"},"id":"0s_PUcnht58K","executionInfo":{"status":"ok","timestamp":1744385430751,"user_tz":420,"elapsed":26,"user":{"displayName":"J H","use
…
imestamp': '2025-04-11 15:32:19'}\n","=============\n"]}]},{"cell_type":"code","source":["print(model)"],"metadata":{"colab":{"base_uri":"https://localhost:8080/"},"id":"lSft3ggc3tzh","executionInfo":{"status":"ok","timestamp":1744385539697,"user_tz":420,"elapsed":48,"user":{"displayName":"J H","userId":"12017482157397552319"}},"outputId":"7fb7914a-fc9b-41c4-b1f5-179f508245c7"},"execution_count":44,"outputs":[{"output_type":"stream","name":"stdout","text":["ModernBertForSequenceClassification(\n","  (model): ModernBertModel(\n","    (embeddings): ModernBertEmbeddings(\n","      (tok_embeddings): Embedding(50368, 768, padding_idx=50283)\n","      (norm): LayerNorm((768,), eps=1e-05, elementwise_affine=True)\n","      (drop): Dropout(p=0.0, inplace=False)\n","    )\n","    (layers): ModuleList(\n","      (0): ModernBertEncoderLayer(\n","        (attn_norm): Identity()\n","        (attn): ModernBertAttention(\n","          (Wqkv): Linear(in_features=768, out_features=2304, bias=False)\n","          (rotary_emb): ModernBertRotaryEmbedding()\n","          (Wo): Linear(in_features=768, out_features=768, bias=False)\n","          (out_drop): Identity()\n","        )\n","        (mlp_norm): LayerNorm((768,), eps=1e-05, elementwise_affine=True)\n","        (mlp): ModernBertMLP(\n","          (Wi): Linear(in_features=768, out_features=2304, bias=False)\n","          (act): GELUActivation()\n","          (drop): Dropout(p=0.0, inplace=False)\n","          (Wo): Linear(in_features=1152, out_features=768, bias=False)\n","        )\n","      )\n","      (1-21): 21 x ModernBertEncoderLayer(\n","        (attn_norm): LayerNorm((768,), eps=1e-05, elementwise_affine=True)\n","        (attn): ModernBertAttention(\n","          (Wqkv): Linear(in_features=768, out_features=2304, bias=False)\n","          (rotary_emb): ModernBertRotaryEmbedding()\n","          (Wo): Linear(in_features=768, out_features=768, bias=False)\n","          (out_drop): Identity()\n","        )\n","        (mlp_norm): LayerNorm((768,), eps=1e-05, elementwise_affine=True)\n","        (mlp): ModernBertMLP(\n","          (Wi): Linear(in_features=768, out_features=2304, bias=False)\n","          (act): GELUActivation()\n","          (drop): Dropout(p=0.0, inplace=False)\n","          (Wo): Linear(in_features=1152, out_features=768, bias=False)\n","        )\n","      )\n","    )\n","    (final_norm): LayerNorm((768,), eps=1e-05, elementwise_affine=True)\n","  )\n","  (head): ModernBertPredictionHead(\n","    (dense): Linear(in_features=768, out_features=768, bias=False)\n","    (act): GELUActivation()\n","    (norm): LayerNorm((768,), eps=1e-05, elementwise_affine=True)\n","  )\n","  (drop): Dropout(p=0.0, inplace=False)\n","  (classifier): Linear(in_features=768, out_features=2, bias=True)\n",")\n"]}]},{"cell_type":"code","source":["for name, param in model.named_parameters():\n","    print(name, \"requires_grad=\", param.requires_grad)"],"metadata":{"colab":{"base_uri":"https://localhost:8080/"},"id":"Cz6A_tAN3ttD","executionInfo":{"status":"ok","timestamp":1744385539701,"user_tz":420,"elapsed":3,"user":{"displayName":"J H","userId":"1201
…
timestamp': '2025-04-11 15:33:41'}\n","=============\n"]}]},{"cell_type":"code","source":["print(model)"],"metadata":{"colab":{"base_uri":"https://localhost:8080/"},"id":"KGqfr7DQ5rJR","executionInfo":{"status":"ok","timestamp":1744385621566,"user_tz":420,"elapsed":4,"user":{"displayName":"J H","userId":"12017482157397552319"}},"outputId":"9dab4f18-a22d-4863-f336-a11140e87ec1"},"execution_count":53,"outputs":[{"output_type":"stream","name":"stdout","text":["ModernBertForSequenceClassification(\n","  (model): ModernBertModel(\n","    (embeddings): ModernBertEmbeddings(\n","      (tok_embeddings): Embedding(50368, 1024, padding_idx=50283)\n","      (norm): LayerNorm((1024,), eps=1e-05, elementwise_affine=True)\n","      (drop): Dropout(p=0.0, inplace=False)\n","    )\n","    (layers): ModuleList(\n","      (0): ModernBertEncoderLayer(\n","        (attn_norm): Identity()\n","        (attn): ModernBertAttention(\n","          (Wqkv): Linear(in_features=1024, out_features=3072, bias=False)\n","          (rotary_emb): ModernBertRotaryEmbedding()\n","          (Wo): Linear(in_features=1024, out_features=1024, bias=False)\n","          (out_drop): Identity()\n","        )\n","        (mlp_norm): LayerNorm((1024,), eps=1e-05, elementwise_affine=True)\n","        (mlp): ModernBertMLP(\n","          (Wi): Linear(in_features=1024, out_features=5248, bias=False)\n","          (act): GELUActivation()\n","          (drop): Dropout(p=0.0, inplace=False)\n","          (Wo): Linear(in_features=2624, out_features=1024, bias=False)\n","        )\n","      )\n","      (1-27): 27 x ModernBertEncoderLayer(\n","        (attn_norm): LayerNorm((1024,), eps=1e-05, elementwise_affine=True)\n","        (attn): ModernBertAttention(\n","          (Wqkv): Linear(in_features=1024, out_features=3072, bias=False)\n","          (rotary_emb): ModernBertRotaryEmbedding()\n","          (Wo): Linear(in_features=1024, out_features=1024, bias=False)\n","          (out_drop): Identity()\n","        )\n","        (mlp_norm): LayerNorm((1024,), eps=1e-05, elementwise_affine=True)\n","        (mlp): ModernBertMLP(\n","          (Wi): Linear(in_features=1024, out_features=5248, bias=False)\n","          (act): GELUActivation()\n","          (drop): Dropout(p=0.0, inplace=False)\n","          (Wo): Linear(in_features=2624, out_features=1024, bias=False)\n","        )\n","      )\n","    )\n","    (final_norm): LayerNorm((1024,), eps=1e-05, elementwise_affine=True)\n","  )\n","  (head): ModernBertPredictionHead(\n","    (dense): Linear(in_features=1024, out_features=1024, bias=False)\n","    (act): GELUActivation()\n","    (norm): LayerNorm((1024,), eps=1e-05, elementwise_affine=True)\n","  )\n","  (drop): Dropout(p=0.0, inplace=False)\n","  (classifier): Linear(in_features=1024, out_features=2, bias=True)\n",")\n"]}]},{"cell_type":"code","source":["for name, param in model.named_parameters():\n","    print(name, \"requires_grad=\", param.requires_grad)"],"metadata":{"colab":{"base_uri":"https://localhost:8080/"},"id":"_wkVHarE5q9_","executionInfo":{"status":"ok","timestamp":1744385621582,"user_tz":420,"elapsed":3,"user":{"displayName":"J H","userId":"120
…
timestamp': '2025-04-11 15:35:50'}\n","=============\n"]}]},{"cell_type":"code","source":["print(model)"],"metadata":{"colab":{"base_uri":"https://localhost:8080/"},"id":"3-Kl7H9c8Ubk","executionInfo":{"status":"ok","timestamp":1744385750662,"user_tz":420,"elapsed":5,"user":{"displayName":"J H","userId":"12017482157397552319"}},"outputId":"f490f4d4-dc1f-4e7d-e2eb-3908a8294f48"},"execution_count":62,"outputs":[{"output_type":"stream","name":"stdout","text":["DebertaV2ForSequenceClassification(\n","  (deberta): DebertaV2Model(\n","    (embeddings): DebertaV2Embeddings(\n","      (word_embeddings): Embedding(128100, 768, padding_idx=0)\n","      (LayerNorm): LayerNorm((768,), eps=1e-07, elementwise_affine=True)\n","      (dropout): Dropout(p=0.1, inplace=False)\n","    )\n","    (encoder): DebertaV2Encoder(\n","      (layer): ModuleList(\n","        (0-11): 12 x DebertaV2Layer(\n","          (attention): DebertaV2Attention(\n","            (self): DisentangledSelfAttention(\n","              (query_proj): Linear(in_features=768, out_features=768, bias=True)\n","              (key_proj): Linear(in_features=768, out_features=768, bias=True)\n","              (value_proj): Linear(in_features=768, out_features=768, bias=True)\n","              (pos_dropout): Dropout(p=0.1, inplace=False)\n","              (dropout): Dropout(p=0.1, inplace=False)\n","            )\n","            (output): DebertaV2SelfOutput(\n","              (dense): Linear(in_features=768, out_features=768, bias=True)\n","              (LayerNorm): LayerNorm((768,), eps=1e-07, elementwise_affine=True)\n","              (dropout): Dropout(p=0.1, inplace=False)\n","            )\n","          )\n","          (intermediate): DebertaV2Intermediate(\n","            (dense): Linear(in_features=768, out_features=3072, bias=True)\n","            (intermediate_act_fn): GELUActivation()\n","          )\n","          (output): DebertaV2Output(\n","            (dense): Linear(in_features=3072, out_features=768, bias=True)\n","            (LayerNorm): LayerNorm((768,), eps=1e-07, elementwise_affine=True)\n","            (dropout): Dropout(p=0.1, inplace=False)\n","          )\n","        )\n","      )\n","      (rel_embeddings): Embedding(512, 768)\n","      (LayerNorm): LayerNorm((768,), eps=1e-07, elementwise_affine=True)\n","    )\n","  )\n","  (pooler): ContextPooler(\n","    (dense): Linear(in_features=768, out_features=768, bias=True)\n","    (dropout): Dropout(p=0, inplace=False)\n","  )\n","  (classifier): Linear(in_features=768, out_features=2, bias=True)\n","  (dropout): Dropout(p=0.1, inplace=False)\n",")\n"]}]},{"cell_type":"code","source":["for name, param in model.named_parameters():\n","    print(name, \"requires_grad=\", param.requires_grad)"],"metadata":{"colab":{"base_uri":"https://localhost:8080/"},"id":"lr9UAQZw8UZt","executionInfo":{"status":"ok","timestamp":1744385750683,"user_tz":420,"elapse
…
gingface_hub', 'path': 'xlnet/xlnet-base-cased', 'timestamp': '2025-04-11 15:37:57'}\n","=============\n"]}]},{"cell_type":"code","source":["print(model)"],"metadata":{"id":"DkGkZ9B58cBZ","executionInfo":{"status":"ok","timestamp":1744385877463,"user_tz":420,"elapsed":5,"user":{"displayName":"J H","userId":"12017482157397552319"}},"colab":{"base_uri":"https://localhost:8080/"},"outputId":"7fd90a92-8167-417b-a74b-7d5c51bb64b4"},"execution_count":26,"outputs":[{"output_type":"stream","name":"stdout","text":["XLNetForSequenceClassification(\n","  (transformer): XLNetModel(\n","    (word_embedding): Embedding(32000, 768)\n","    (layer): ModuleList(\n","      (0-11): 12 x XLNetLayer(\n","        (rel_attn): XLNetRelativeAttention(\n","          (layer_norm): LayerNorm((768,), eps=1e-12, elementwise_affine=True)\n","          (dropout): Dropout(p=0.1, inplace=False)\n","        )\n","        (ff): XLNetFeedForward(\n","          (layer_norm): LayerNorm((768,), eps=1e-12, elementwise_affine=True)\n","          (layer_1): Linear(in_features=768, out_features=3072, bias=True)\n","          (layer_2): Linear(in_features=3072, out_features=768, bias=True)\n","          (dropout): Dropout(p=0.1, inplace=False)\n","          (activation_function): GELUActivation()\n","        )\n","        (dropout): Dropout(p=0.1, inplace=False)\n","      )\n","    )\n","    (dropout): Dropout(p=0.1, inplace=False)\n","  )\n","  (sequence_summary): SequenceSummary(\n","    (summary): Linear(in_features=768, out_features=768, bias=True)\n","    (activation): Tanh()\n","    (first_dropout): Identity()\n","    (last_dropout): Dropout(p=0.1, inplace=False)\n","  )\n","  (logits_proj): Linear(in_features=768, out_features=2, bias=True)\n",")\n"]}]},{"cell_type":"code","source":["for name, param in model.named_parameters():\n","    print(name, \"requires_grad=\", param.requires_grad)"],"metadata":{"id":"sx-grNX08b-e","executionInfo":{"status":"ok","timestamp":1744385877466,"user_tz":420,"elapsed":2,"user":{"displayName":"J H","userId":"12017482157397552319"}},"colab":{"base_uri":"https:
…
ngface_hub', 'path': 'xlnet/xlnet-large-cased', 'timestamp': '2025-04-11 15:39:04'}\n","=============\n"]}]},{"cell_type":"code","source":["print(model)"],"metadata":{"id":"FOHmuSwbD3iy","executionInfo":{"status":"ok","timestamp":1744385944817,"user_tz":420,"elapsed":34,"user":{"displayName":"J H","userId":"12017482157397552319"}},"colab":{"base_uri":"https://localhost:8080/"},"outputId":"70283584-dc6c-41d1-940d-fff93962052e"},"execution_count":34,"outputs":[{"output_type":"stream","name":"stdout","text":["XLNetForSequenceClassification(\n","  (transformer): XLNetModel(\n","    (word_embedding): Embedding(32000, 1024)\n","    (layer): ModuleList(\n","      (0-23): 24 x XLNetLayer(\n","        (rel_attn): XLNetRelativeAttention(\n","          (layer_norm): LayerNorm((1024,), eps=1e-12, elementwise_affine=True)\n","          (dropout): Dropout(p=0.1, inplace=False)\n","        )\n","        (ff): XLNetFeedForward(\n","          (layer_norm): LayerNorm((1024,), eps=1e-12, elementwise_affine=True)\n","          (layer_1): Linear(in_features=1024, out_features=4096, bias=True)\n","          (layer_2): Linear(in_features=4096, out_features=1024, bias=True)\n","          (dropout): Dropout(p=0.1, inplace=False)\n","          (activation_function): GELUActivation()\n","        )\n","        (dropout): Dropout(p=0.1, inplace=False)\n","      )\n","    )\n","    (dropout): Dropout(p=0.1, inplace=False)\n","  )\n","  (sequence_summary): SequenceSummary(\n","    (summary): Linear(in_features=1024, out_features=1024, bias=True)\n","    (activation): Tanh()\n","    (first_dropout): Identity()\n","    (last_dropout): Dropout(p=0.1, inplace=False)\n","  )\n","  (logits_proj): Linear(in_features=1024, out_features=2, bias=True)\n",")\n"]}]},{"cell_type":"code","source":["for name, param in model.named_parameters():\n","    print(name, \"requires_grad=\", param.requires_grad)"],"metadata":{"id":"7Lkse6T-D3gF","executionInfo":{"status":"ok","timestamp":1744385944834,"user_tz":420,"elapsed":16,"user":{"displayName":"J H","userId":"12017482157397552319"}},"colab":{"base_uri":"http
…
